STDenseNet-master/results/model=densenet-loss=l2-lr=0.001-close=3-period=3-trend=0.model (torch, 421233 bytes, 122 tensors)

weight f4 [32, 6, 3, 3]
00000000: ba59 f23d 530d e0bd e0a8 40bd 2c97 6a3e
00000010: aaf2 193d dd43 de3d e644 993e 4166 6a3e
00000020: f07b 1d3e 8f26 bcbd a48b 36be 7296 a7be
00000030: da08 c13d f902 9e3e e0a5 b13d 8209 cc3d
00000040: 8ea6 5bbe 5225 9e3b 3ef4 933e 0e16 12bd
00000050: 2941 403d 0e98 ecbd 213a 873e 025f 1f3e
00000060: 925d ba3e 49ee 7ebc 85d1 bb3c 8471 2abd
00000070: a657 e63d ffae cbbc 926a d8bd 8541 1ebe
00000080: 58db 8c3e ac17 a03d 348e 663d 8a29 1abe
00000090: 0ebe 21be e922 b33e ea40 64bc 83a2 2c3e
000000a0: 18d2 c93d d40a 3cbb 9735 3abc 83ac c93e
000000b0: 5fab 3a3e 9830 a83d 21ab b0bd 1ccb 55be
000000c0: 7d40 41bd b9c7 d1bc 2aea 91bd 4aa9 cbbd
000000d0: 8c35 2cbe fbd9 d63d 0ec6 4bbe ad19 a2bd
000000e0: 5771 f53e 04a7 ef3d f86f 873e 04bc fb3d
000000f0: ac85 0a3d 2990 2d3e 7623 99bd 41fc 6dbd
00000100: d0e9 083e ed61 323b 776a 2ebe e133 d5bc
00000110: 24c4 c8be e021 09be 8ce5 283d 0786 673d
00000120: 2a22 7cbe bf35 3a3e 5a90 91bd 2094 d0be
00000130: 69b7 973e 3712 77be 057b a7be 790e 07bd
00000140: 785a 0dbe 9a67 4dbe 92b5 493e 9c6b a3bd
00000150: fc2e 42be 7d49 9b3e d2d0 b13b de30 253e
00000160: 2934 793e bc84 883d 49be ed3c d38d acbd
00000170: 5493 9cbe dec3 1fbe 0634 a3be 2a4c 79bc
00000180: fe75 1cbd 6fb5 bd3e b62d 4bbd 97c6 833d
00000190: a5ac b23e 8a4b 3ebd 8bad 423e b5f2 fcbb
000001a0: e66e e73e 3d92 67be b539 92bc ef46 35bc
000001b0: 57cb 363e 4e80 983e 2743 123e 4793 ddbd
000001c0: 1140 27bd ad53 abbd 2823 303e e703 b33e
000001d0: afb0 a43d 47d4 4b3d b883 8c3e 372c 02be
000001e0: f1e0 243e d476 1dbd 467c 01be d18e da3e
000001f0: 1573 f43d 5bd7 523d a2ae 523e b7f3 083e
00000200: 4734 a7bc 21a1 813e a852 05be bb1a 3dbe
00000210: e681 2b3e 435e f8bd 3112 1abb 175c 67bd
00000220: 7641 473d 0b94 f4bd 95b1 0dbe fc88 bc3d
00000230: a533 943d 8e61 af3d 8456 9abd cf80 c0be
00000240: c099 b9bd c183 bc3e f578 d0bc 3b69 2dbe
00000250: 6198 513e 06b1 37be e498 e2bd dad3 2fbe
00000260: 9415 84be b537 003f 476c 243e a51d 21be
00000270: 8ce8 aa3e c579 253d f658 793e 60fa da3e
00000280: f9c7 413e d22d 113e 6c36 c73d 062c fbbd
00000290: cbff 6c3e 64f6 cc3e fa58 32be b0aa 753c
000002a0: c6b1 8a3e 9d85 563e 19cb 45bd 7092 8a3e
000002b0: 0beb 273d 5df0 68be 5170 973e 601b 253e
000002c0: b5b1 91bd ff83 afbd b0ce 273e 968e 0fbd
000002d0: a66e 9bbd f1c9 7d3e e38d d3be 50b1 4a3e
000002e0: 6d5e 6cbe 583e d53d 33db 683e f6a4 c83e
000002f0: 8e6b 873e 196b 803d 9ddb bb3e a0b9 e3bd
00000300: e55d cabd 18d9 dc3d ac15 a4be 4668 a3bd
00000310: cf7a b13d 3d26 8abe 8f0d 0f3e bdb6 553e
00000320: 419e 4cbd b996 b53b 312b 08bb d641 0fbe
00000330: 9d97 cb3e 14d2 1bbe f230 a53e d29a 093e
00000340: 5955 533d c761 2e3e 54eb dbbc 1e90 a83e
00000350: 3465 ee3e ff88 a23a 103f 12bc 95bc 813b
00000360: 65f4 84be 45cb 85be 792a 9d3e f3d7 31bd
00000370: c4a5 813d d03b 113b bcd2 e03e 7603 863d
00000380: a53a 1abe 4a42 ebbd 1891 f83d 5f68 4b3d
00000390: 23c6 0cbc 8329 bcbd ed6b 10bd c16c d23e
000003a0: fe3e 513e 2c84 793d 0180 7dbe 5efa 003d
000003b0: a7d0 c3be ac15 6bbd 0175 bf3b c953 6fbd
000003c0: cc7c 7c3d 660b c53e 2123 8f3e 9348 1fbe
000003d0: dbd1 11be d593 7e3e 59c6 b2bd ea3b 3d3e
000003e0: a870 0bbd 4c47 b8be 7fd9 453e 29bf 243e
000003f0: 822f 4ebe 3e38 23be d427 053e bba8 03be
0.1183352 -0.109400414 -0.04703605 0.2290923 0.037584938 0.10852788 0.29935378 0.2289057
0.1537931 -0.09187042 -0.17826706 -0.32731968 0.094255164 0.30861643 0.08674216 0.09962751
-0.21450254 0.0048262263 0.2889728 -0.035665564 0.04693714 -0.1155244 0.26411536 0.15563586
0.36399513 -0.015559741 0.022927055 -0.041612163 0.11247186 -0.024863718 -0.10567202 -0.15454681
0.27511096 0.07817015 0.05628796 -0.15054908 -0.15795156 0.34987572 -0.013931492 0.16858868
0.09854525 -0.0028692978 -0.011365316 0.39389428 0.18229435 0.082123935 -0.0862639 -0.20878261
-0.04718064 -0.02560793 -0.071247414 -0.09944399 -0.16817302 0.10490795 -0.1989977 -0.079150535
0.47938034 0.117017776 0.26452613 0.122917205 0.033818886 0.16949524 -0.07477467 -0.058101896
0.13370442 0.0027219013 -0.170328 -0.026025714 -0.39212143 -0.13391829 0.041234538 0.056524303
-0.24622408 0.18184565 -0.07107611 -0.4073801 0.29632118 -0.24128042 -0.32711044 -0.032972787
-0.13804042 -0.20059052 0.1969817 -0.07979509 -0.18963236 0.30329505 0.0054265046 0.16131923
0.24336304 0.06665942 0.0290214 -0.08425488 -0.30581152 -0.15602061 -0.31875628 -0.015215913
-0.038198464 0.37052485 -0.04960414 0.064343624 0.34897342 -0.04645876 0.19011514 -0.0077193626
0.45201796 -0.22614379 -0.017849782 -0.011064275 0.17851005 0.2978539 0.14283429 -0.108191065
-0.040832583 -0.08365569 0.17200911 0.34963915 0.08041512 0.04976299 0.27444243 -0.12712179
0.16101433 -0.0384434 -0.12645063 0.42687085 0.11936013 0.05147491 0.2057443 0.1337422
-0.02041067 0.25318244 -0.13019812 -0.18467228 0.16748771 -0.12127354 -0.0023509378 -0.056484308
0.048646413 -0.119422995 -0.13837273 0.09205815 0.07236413 0.08563529 -0.07536033 -0.37598273
-0.090625286 0.3681927 -0.025448302 -0.16934673 0.20468284 -0.17938623 -0.11064318 -0.17170659
-0.25797713 0.50085 0.1605693 -0.15733965 0.33380544 0.04039933 0.24350342 0.42769146
0.1892394 0.14177635 0.09727177 -0.12264256 0.23144452 0.4003173 -0.17416754 0.014994308
0.27088755 0.20949407 -0.048289392 0.27064848 0.04099564 -0.22747941 0.29577878 0.16123724
-0.07113973 -0.08570098 0.16387439 -0.03504809 -0.07589464 0.24784066 -0.41319188 0.19794202
-0.23082896 0.10412282 0.22739868 0.39188355 0.26449245 0.06270427 0.3669099 -0.111193895
-0.0988119 0.10783595 -0.32047784 -0.07978873 0.08666002 -0.26982298 0.13970016 0.2087049
-0.04995561 0.005541649 -0.0020777697 -0.13989958 0.3976411 -0.15216857 0.32263905 0.13437966
0.051595066 0.17029487 -0.026845612 0.32922453 0.46561587 0.0012400447 -0.008926168 0.0039592483
-0.25967708 -0.26131645 0.30696467 -0.043418836 0.063304454 0.0022160895 0.43910778 0.06543629
-0.15061434 -0.11487253 0.121370494 0.049660083 -0.008592161 -0.09187605 -0.035259176 0.41098598
0.20434186 0.060917065 -0.24755861 0.03148877 -0.38245127 -0.057393715 0.0058428054 -0.058429513
0.061642453 0.3848526 0.2795649 -0.15555029 -0.1424021 0.24861081 -0.08729238 0.18479887
-0.034042984 -0.35991895 0.1932125 0.16088547 -0.2013531 -0.15939423 0.13003474 -0.12857334

bias f4 [32]
00000000: 4b9a a9bd 5552 fd3d 2b76 d93d 95a7 8cbd
00000010: 340f 86bd 3e69 e53d d7fa 253d f08a 4abd
00000020: 0150 3c3d 4fe3 ce3d c85c 2d3c 04c9 933d
00000030: 8fb8 47bb 3a84 893d 628a cbbd 30f1 fbbc
00000040: ec02 7ebd 6a4f 203c 2771 6b3d 0ffd d63c
00000050: 4804 bebd cab6 803d 9559 aa3d e647 6f3c
00000060: 91a3 e7bd b3e3 04bd cd3b 8fbc 6afa 4fbd
00000070: 07f7 b7bc 4910 84bd a23b b83d 49e4 ee3d
-0.08281382 0.12369219 0.10618242 -0.06867901 -0.065458685 0.11201714 0.040522423 -0.049448907
0.045974735 0.101019494 0.010581203 0.07216075 -0.0030474996 0.06714673 -0.09938504 -0.030754656
-0.062014505 0.009784559 0.057480957 0.026243715 -0.0927816 0.06284864 0.08317868 0.014604544
-0.11310495 -0.032443713 -0.01748457 -0.050775923 -0.022456659 -0.06448419 0.08995749 0.11664636

weight f4 [32]
00000000: ad48 123f 5dc4 3e3f ac32 803f 0fa3 443f
00000010: 8cad 5b3f 9543 3a3f 3e93 5b3f 6689 363f
00000020: 6a3b 753f 9a7f 6c3f 286f 803f 11de 7d3f
00000030: 01bf 753f bf9d 803f 4402 813f 26c6 623f
00000040: dbe2 643f b306 313f 8cec 673f 621c 343f
00000050: e608 7e3f d292 5d3f 6df3 813f aa65 653f
00000060: f90a 483f 2680 7b3f 5980 6f3f 44d4 803f
00000070: cfa2 723f a037 643f fa67 813f ad7e 483f
0.57142144 0.74518377 1.0015464 0.7681131 0.85811687 0.7275937 0.8577155 0.71303403
0.95793784 0.92382205 1.0033922 0.9916697 0.95994574 1.004814 1.0078816 0.885836
0.89408654 0.6915085 0.90595317 0.7035581 0.9923233 0.86552155 1.0152413 0.8960825
0.7814174 0.98242414 0.9355522 1.0064778 0.94779676 0.89147377 1.0109856 0.7831829

bias f4 [32]
00000000: f46a 1abe 97d0 5dbd 097d f1bb 1c21 a2bd
00000010: 714b 203d 63b3 3bbe bd2a 9abd cff1 8b3d
00000020: e810 edbb 9934 40bd a11c 1cbc 8381 a23c
00000030: 88db eabc 702d d6bb 3f48 34bc 4797 723d
00000040: 260b 86bd 4487 bfbd c64e 753d 013b b93d
00000050: 1959 af3c 10df 97bd a678 143b 7082 ab3d
00000060: 0861 0b3e bdc2 6cbc 238d 553d da47 6a3c
00000070: f15f 883c 4a78 313d a258 52bc 697d 11be
-0.15079862 -0.054154005 -0.0073696417 -0.07916471 0.039134447 -0.1833015 -0.07527683 0.06833231
-0.0072346814 -0.04692516 -0.00952831 0.019837147 -0.028669134 -0.0065361783 -0.011003553 0.0592263
-0.06545095 -0.09351972 0.059889577 0.09044457 0.02140479 -0.07415593 0.002265492 0.08374488
0.13611233 -0.014450726 0.05213655 0.014299357 0.01664731 0.043327607 -0.0128385145 -0.14207996

running_mean f4 [32]
00000000: 39f0 3d3d 8263 e83d 0435 4f3e 9af2 9e3d
00000010: 3d93 2abc 3835 363e cba4 143e bb68 913d
00000020: fe2a 1f3e be01 873e 8af5 cf3d 1754 2c3e
00000030: 1460 893d fc52 7abd 9379 16be 04d0 c13d
00000040: 99e3 86bc 5ee2 803d f9ad 2bbc 0691 bf3d
00000050: b996 fe3c f97f 083e 2c84 ec3d 72d2 96bd
00000060: 7a67 58be 4b4f a23c 60d7 1abe b222 51bd
00000070: 8b1f 263d 6f6f 7cbc 84c6 1a3b b32c 5a3e
0.046371672 0.113471046 0.20235068 0.07761116 -0.010411081 0.17793739 0.14515989 0.07100054
0.15543744 0.26368517 0.10154255 0.16828953 0.067077786 -0.061114296 -0.14694814 0.09463504
-0.016465949 0.06293176 -0.01047849 0.09353833 0.03107773 0.13330068 0.11548647 -0.07364358
-0.21133223 0.0198132 -0.15121222 -0.05105848 0.040557425 -0.015407427 0.002361686 0.21306114

running_var f4 [32]
00000000: f579 a23c 0ccb da3a 0738 643c ef43 cc3c
00000010: 6ca8 b83b 9cbb e53b 1bda 413c b48d 933c
00000020: 805c 853c 6752 e03c e631 283c 4ab7 3f3c
00000030: 9cda fa3b 6315 973c 1ac3 a53b b958 8c3c
00000040: c0ea 8f3b 6a22 d23b 1a38 e13b addc a93b
00000050: fdd0 a33c ab4b f63b 88c2 493b b78a 2f3c
00000060: cf1a 5b3c 0bed 603b b244 9d3c 8fb8 5f3b
00000070: aa93 c63b 4931 433b c015 163c 8b1f 253c
0.019833544 0.0016692593 0.013929374 0.024934737 0.005635312 0.00701089 0.011831786 0.018011905
0.016279459 0.027383042 0.010265803 0.011701414 0.007655455 0.018442815 0.0050586583 0.01713215
0.004391998 0.006412794 0.006873143 0.0051837773 0.019997114 0.0075163445 0.0030786116 0.010714225
0.013373091 0.0034320976 0.019197796 0.0034137105 0.0060600834 0.0029784015 0.009160459 0.010078321

weight f4 [32]
00000000: 9662 753f 469a 7a3f 4844 813f 8449 793f
00000010: 0f1b 703f 260e 703f b618 803f fdbb 7a3f
00000020: a657 7f3f 5c38 7a3f d513 803f 4c56 833f
00000030: 1061 753f 2e0d 813f 6e2f 863f c30e 7b3f
00000040: 0cb0 813f 0c7a 873f 7d32 7a3f c495 803f
00000050: 663b 843f f728 843f 5895 6d3f 6fa5 863f
00000060: efe5 7f3f da86 7e3f ef1b 833f ad32 803f
00000070: 5a9f 803f f8be 703f 4efb 823f 1784 7e3f
0.95853555 0.9789165 1.0098963 0.973778 0.9379129 0.9377159 1.0007541 0.979431
0.99743116 0.9774225 1.0006052 1.0260711 0.9585123 1.0082147 1.0483224 0.980694
1.013185 1.0584121 0.9773329 1.0045705 1.0330627 1.0325001 0.92806005 1.0519236
0.99960226 0.9942452 1.02429 1.0015465 1.004863 0.94041395 1.0232942 0.99420303

bias f4 [32]
00000000: 8ad2 febd f409 05be 59a8 3bbe 632b 79bd
00000010: 3587 fabc 1949 0dbe 17ef 90bd 72d9 49bd
00000020: 65a0 c7bd 7676 8ebd 4a1b ca3c 68d5 b6bc
00000030: 1a10 26be 2880 cd3d f0ec 9f3c bc85 6cbd
00000040: f140 d8bd b42f 07be 19da 563c 6c40 0bbd
00000050: cdbe 813c ad3c 2dbe 47e1 14bd 9586 393d
00000060: 8b16 833d 2bcf dd3c e579 b03d 8edd b13c
00000070: 5c2f 30be 1313 94bc d3a2 d63d 5c20 adbd
-0.12442501 -0.12992078 -0.18325938 -0.060832392 -0.03058205 -0.13797416 -0.07076853 -0.049279638
-0.0974739 -0.069561884 0.024671216 -0.022318557 -0.1621708 0.100342095 0.01952216 -0.057744727
-0.105592616 -0.13201791 0.013113522 -0.033996984 0.015838051 -0.16917677 -0.036347654 0.045294363
0.06400784 0.027076324 0.086169995 0.02171209 -0.17205566 -0.018075502 0.10480275 -0.08453438

running_mean f4 [32]
00000000: 8a90 1e3e 6735 3f3e 9fa7 a83e 5b7d 783e
00000010: 309d 9c3e 5570 3e3e a6f7 8e3e 4bcf 913e
00000020: 2d98 a83e cd66 a03e 22a5 ae3e 3f10 b93e
00000030: 7ea6 a43e 7851 b63e 7852 a43e 9b6d af3e
00000040: b68c 943e 7d4b 3a3e aac9 b13e cb55 953e
00000050: a9d0 b23e 4ad7 8b3e 2c08 ae3e 1b44 ba3e
00000060: 86e8 ba3e c2be ad3e 6e82 bb3e 8158 a03e
00000070: 8a03 a63e f72f a73e 71a1 b23e 2f92 6f3e
0.15484825 0.18672715 0.32940385 0.2426657 0.30588675 0.18597539 0.27923316 0.28478464
0.329286 0.3132843 0.3411036 0.36145207 0.32158273 0.3560903 0.3209417 0.3426331
0.29013604 0.18192859 0.3472417 0.29167017 0.3492482 0.2731269 0.3399061 0.36380085
0.36505526 0.339346 0.36622947 0.31317523 0.32424575 0.32653782 0.34888795 0.23395608

running_var f4 [32]
00000000: 485d 263e b92f 1d3e 5239 2c3f 0dd4 ae3e
00000010: d31b eb3e 0cd1 953e 4374 d73e 24f3 a93e
00000020: 1d5b 153f 221d 003f fc89 253f 9bc2 1d3f
00000030: 4af0 143f b252 053e 9ff5 333e b505 003f
00000040: c125 e33e 212a a33e 029b e43d 5bc4 a73e
00000050: 5b63 253f ae0e e43e b1f1 1d3f 240a f93d
00000060: ec1d d03d 6a67 163f 2ecf 033e 2f2e c73e
00000070: da09 1a3f a9bc 043f eb9f 053e 1462 a13e
0.16246521 0.15350236 0.67274964 0.34146157 0.45919666 0.29261053 0.42080888 0.33193314
0.5834215 0.50044453 0.6466367 0.6162507 0.5817915 0.13019827 0.17574166 0.5000871
0.4436474 0.3186808 0.11162378 0.32766995 0.6460473 0.4454245 0.61696917 0.12160137
0.10161957 0.5875155 0.12872002 0.38902423 0.6017128 0.5185037 0.13049285 0.3152014

weight f4 [48, 32, 1, 1]
00000000: b3f6 823e c895 023e 3ed3 c73d 881f 4d3d
00000010: b1e4 e4bd 3e45 4f3e 979d 45ba 396d 923e
00000020: b753 f5bd b965 993e 64b1 4cbc 4501 3fbe
00000030: 339c 143e 1781 913c e69e f63d fcbe 5d3e
00000040: e42e 853d 6ce9 02be db79 80be fc4c 72bd
00000050: 1e11 443e 5839 963d e400 873e 44fa e23d
00000060: 4d70 a03b e515 bbbe a607 263e eaa1 0ebe
00000070: 8c9c 90bc 7c24 36be 1046 18bc 916d 0e3e
00000080: 8457 02be f2e3 a63e 67da aa3d 3a52 083e
00000090: 51df 98be 6484 803e 712b 57bd afb1 11be
000000a0: 0e65 61bc eb1a ba3c 099c a53e 20a6 c53e
000000b0: 5df8 80bd 9c24 9abe 9def dabe 39cb 283e
000000c0: c360 61bd a80f c23d 1456 d73c d289 a4bd
000000d0: 59df 973e ca28 bf3e 5e48 d23e 04de 15be
000000e0: 26b3 9c3c 4367 9b3c 3e74 a2bb a5d2 9dbe
000000f0: 548e c33e c233 153e ba16 b8be 804d ffbc
00000100: 78c9 79bd 8677 163e c40e 61bd 0c84 9dbc
00000110: 17c7 3c3e 43e3 debe a8fc 97be e22e 673c
00000120: a310 013e 88aa 42bd 8c1a 8ebe 7989 0e3f
00000130: ed16 8dbe 0aca f73d d28e 873d e34a 603d
00000140: f8dc d8bd f9d0 04bb 67c5 b1bd 0775 543d
00000150: 1c5c 02be 1de5 9bbd d667 b8be 8867 a23d
00000160: c9b4 713d 70ae 1ebe b3fb a23c 2a8b f53d
00000170: ecdc be3e 2954 c63b 7495 16be 3835 0b3e
00000180: 4286 97be a195 f83d f105 283c 3b8f ef3a
00000190: e0e4 2c3e c096 08bd 1b47 09bf afef 643e
000001a0: 0f6a dbbe 41ce fdbc 7b87 dc3e b6dc 87be
000001b0: 63eb 03be d960 0b3e 3af7 4bbe 50df 4bbd
000001c0: 697e 58bc 84c4 0d3f b2e8 f9be b7d3 183e
000001d0: ae89 5b3e defc 98be d284 9ebd 756a a5be
000001e0: e436 a73e 8303 c9bd 0dbb 133e 9b1b bb3d
000001f0: 5221 423d 0386 3a3e 505e 3b3e 49b9 ab3d
00000200: ada9 aabe 6782 07bf 0ae2 773e 6b8e 483e
00000210: 173e 83be ae35 8cbd a735 25bd 484b 83be
00000220: f29a 673e c34e fabe 3968 81bd e8d3 93be
00000230: c1a5 86bc 5a09 2dbe 30d0 a53e 8768 5cbc
00000240: a62f 95be f531 b73d d4b7 88be bf18 77be
00000250: b5be 53be 0b2c b3be f1ce b1be 80bb b1be
00000260: d7ee 0abe b027 8cbe df6f e1bd 3845 d4bd
00000270: 07ab acbd 82c8 0abe 8083 08bf b4fd a9be
00000280: 44fe a63d 8048 e13d ab5d 74bc 367c 04ba
00000290: 6ccc 0bbf 113b a93e 003d 3d3d ce2c 283f
000002a0: 67a7 343d ab2f 5dbe 1ed5 88bb 36cb dabe
000002b0: de61 ebbd 6657 df3d be73 4fbe d4c8 bdbc
000002c0: 3c2b 183e d4af 063e b3ab d4be 15bd 1c3d
000002d0: ff4d 763c 5aac a53c 1436 603e 23ca d9bd
000002e0: aeeb 3c3e 2081 683d 7f55 22bd 7bfd e33b
000002f0: 98fe e1bd 9183 693e ef4b 873e 6abe f03d
00000300: 2d6b 87be 4dc8 c73d 1ab4 383e 603a 94be
00000310: 648c 683d 0c77 c03e c4e2 1abe 0b50 553e
00000320: e08e 93be 6d6b 023e 0468 5b3d bd00 6cbe
00000330: abf0 a53d b6ed 043e 8a88 b73d fec6 77be
00000340: a778 87be 02a0 f3bd 55e4 f1bd bff4 703e
00000350: 167e 98bd 44cf 11bd a5cf 12be 60c8 553e
00000360: da25 543e 4219 04be a84c 943e 1a17 e8be
00000370: 981d 3b3d 41c4 003f bb07 60be 3d4c 633d
00000380: cd72 a0bd f6be 8cbe f051 85bc 62de 1ebd
00000390: df92 963e 98fc 15be 9820 acbe 9cfe 5f3c
000003a0: 34f2 2d3f 795e 33be a890 fb3c b8eb 6e3d
000003b0: 7e9d 433e 7e3f 3ebe bd62 6fbe c2c0 b03e
000003c0: 51fc 70bd 7dfd d7be 9e07 33bc 2042 d7be
000003d0: e319 81be 2dbf 163e d10a bb3e 3e96 723d
000003e0: ce6f 823e c4ca 213e 24b1 fb3e 7fac 16be
000003f0: 151f 533e 719b e33d f4e9 ac3e e3bc cfbd
0.25578842 0.1275245 0.09757088 0.0500789 -0.11176432 0.20241258 -0.00075384363 0.28598955
-0.11978858 0.2996042 -0.012493465 -0.18652828 0.1451271 0.01776175 0.12042026 0.21654886
0.06503084 -0.12784356 -0.25092968 -0.05915545 0.19147155 0.07335156 0.26367867 0.11082891
0.0048962 -0.36540142 0.16213855 -0.13928953 -0.017652772 -0.17787355 -0.009294048 0.13908984
-0.12728697 0.32595783 0.08342438 0.13312617 -0.29857877 0.25101006 -0.052531663 -0.14227937
-0.0137570035 0.022717914 0.32345608 0.38603306 -0.062973715 -0.30106056 -0.42760935 0.16483773
-0.05502392 0.094756424 0.026286162 -0.080341 0.29662588 0.37335807 0.41070837 -0.14635473
0.019128393 0.018970137 -0.004957705 -0.30824772 0.38194525 0.14570525 -0.3595484 -0.031164885
-0.06098315 0.14694032 -0.054945722 -0.019228004 0.18435322 -0.43532762 -0.2968495 0.014110299
0.12604003 -0.047525913 -0.2775463 0.55678517 -0.27556553 0.12099083 0.06619038 0.054758918
-0.105890214 -0.002026616 -0.0868023 0.05186942 -0.1273045 -0.07612059 -0.3601672 0.07929903
0.0590103 -0.1549623 0.01989541 0.11989434 0.37277925 0.006052513 -0.1470545 0.1359452
-0.29594618 0.121379144 0.010255323 0.0018276939 0.16884184 -0.03334689 -0.53624123 0.22357057
-0.42854354 -0.030982139 0.43072113 -0.26535577 -0.12882762 0.13611163 -0.19918528 -0.049773514
-0.013213732 0.55377984 -0.48810345 0.14924513 0.2143924 -0.29880422 -0.07740177 -0.32307783
0.32659066 -0.09815123 0.14426823 0.09136125 0.047395058 0.18215184 0.18297696 0.0838495
-0.33332577 -0.52933353 0.24207321 0.19585578 -0.25633308 -0.06846176 -0.04033437 -0.25643373
0.226177 -0.48888215 -0.06318707 -0.2887261 -0.01643646 -0.16898099 0.32385397 -0.013452656
-0.29137915 0.089450754 -0.2670275 -0.24130534 -0.20678218 -0.3499454 -0.34728196 -0.34713364
-0.13567673 -0.2737403 -0.11007666 -0.10364765 -0.084310584 -0.1355305 -0.53325653 -0.33201373
0.08153966 0.110001564 -0.01491491 -0.0005053909 -0.546088 0.33052877 0.046200752 0.65693367
0.04410496 -0.21600215 -0.004175796 -0.42733163 -0.11493276 0.10905342 -0.20258996 -0.023167051
0.14860243 0.1315301 -0.41537246 0.03826626 0.015033244 0.020223785 0.21895629 -0.10634258
0.1844928 0.05676377 -0.039632317 0.0069577075 -0.11034888 0.22804095 0.2642512 0.117550686
-0.26448956 0.09755001 0.18037453 -0.28950787 0.056774512 0.37590826 -0.15125567 0.20831315
-0.28819942 0.12736292 0.053565994 -0.23047157 0.081025444 0.12981305 0.0896159 -0.24197003
-0.26459238 -0.118957534 -0.11811129 0.23530863 -0.07445924 -0.035598055 -0.14337023 0.20877218
0.20717564 -0.1290026 0.28964734 -0.45330125 0.04568252 0.5029946 -0.21877949 0.05549263
-0.078343965 -0.27489442 -0.016274422 -0.0387863 0.2940893 -0.14647138 -0.33618617 0.013671543
0.679477 -0.17516507 0.030708626 0.058330268 0.19103047 -0.18578908 -0.2337751 0.34522063
-0.058834378 -0.42185584 -0.010927109 -0.42042637 -0.25215062 0.14721365 0.3653169 0.059225313
0.25475925 0.15800005 0.49158585 -0.1471424 0.20617326 0.111136325 0.33772242 -0.10143449

weight f4 [48]
00000000: 2d3e 833f 4987 7b3f 716d 893f ebfa 763f
00000010: 14f5 7e3f fb6d 793f fc05 813f 45e7 7c3f
00000020: 9049 763f 35a0 833f b20c 7d3f 7b9e 7c3f
00000030: e37b 843f 967f 773f eed4 843f cb70 7b3f
00000040: 8501 7b3f 9492 823f b212 853f 17a8 823f
00000050: f045 7b3f 4f76 823f 2a48 803f c91f 823f
00000060: 21db 7b3f c6f7 823f c12e 6e3f cbbd 7d3f
00000070: bdf3 813f acdd 793f 6d75 883f d7fc 823f
00000080: 0806 883f b556 773f 00d8 833f a07d 803f
00000090: 20ef 753f 21a0 7f3f 34da 7a3f 9eb7 803f
000000a0: 09e7 713f cd38 833f 5af9 813f 45ad 7e3f
000000b0: 43eb 863f fed8 6a3f fbc6 7f3f 83ad 793f
1.025335 0.98253304 1.0736524 0.9647662 0.9959271 0.9743344 1.0079951 0.9879039
0.96206 1.0283266 0.98847497 0.9867932 1.0350307 0.96679056 1.0377481 0.98218983
0.98049194 1.0200982 1.039633 1.0207547 0.9815359 1.0192355 1.0022023 1.016595
0.9838124 1.0231864 0.9304009 0.99117726 1.0152508 0.9760387 1.0660836 1.0233411
1.062684 0.9661668 1.0300293 1.0038338 0.96068 0.9985371 0.979892 1.0056036
0.94493157 1.0251709 1.0154221 0.9948314 1.0540546 0.91737354 0.99912995 0.9753038

bias f4 [48]
00000000: 4e2c 66bd a2c3 71bc 3880 bd3d 003a f83b
00000010: 7518 d93c 3afd b7bc c394 373d a8d0 5b3c
00000020: 977f 19bd ab0d c1bd 0fed 9fbd 91df 89bc
00000030: f6b1 b83c 75ca 82bc 1021 483d a8bf 37bc
00000040: eb84 50bd 4f55 13be 51aa a93b 3e29 0fbe
00000050: e95a bfba 6238 23bc 06d0 c33c fcec 1a3d
00000060: be56 d23b fe20 17be e08a a4bc 44a8 923c
00000070: 74a3 4eba 998b babc aa72 8a3d ec0c d4bc
00000080: 61cb 39bb ab5a 23bd c826 0dbe 8946 743c
00000090: a4fb 8abc e7cb babd 7a9a b7bc 1bfb db3a
000000a0: c16d 01bd 0bd1 11be 741a 03be 3271 713c
000000b0: e369 ab3d 9091 f3bc 6a4c e2bd 133e fcbc
-0.056194596 -0.014756115 0.092529714 0.0075752735 0.02650092 -0.022459615 0.044819605 0.013416447
-0.037475195 -0.09426435 -0.07808887 -0.016830238 0.022545796 -0.01596568 0.048859656 -0.011215128
-0.05090801 -0.14388011 0.005177774 -0.13980576 -0.0014599237 -0.009962173 0.023902904 0.037823662
0.006419032 -0.1475868 -0.020085752 0.0179025 -0.0007882633 -0.022771643 0.06760152 -0.025885068
-0.0028349983 -0.03988139 -0.13784325 0.014909395 -0.016965695 -0.091209225 -0.022412527 0.0016783209
-0.03159881 -0.142399 -0.1280306 0.0147364605 0.08369806 -0.029732496 -0.11049731 -0.030791318

running_mean f4 [48]
00000000: e96b b13e 7e16 f73c 3f7b 7dbd 82cf 22bd
00000010: c1e3 e2bf 6c69 163e e710 8a3d 9f38 db3e
00000020: dadd f7be 975c 703f b6f3 253f 2353 5dbe
00000030: aac7 593d 5210 633f 93e4 90bd 4679 933d
00000040: 3003 023f e941 933f 22f0 00be 3917 8b3f
00000050: a996 53be e9a1 863e e106 813d 8821 38bf
00000060: 77ec dabe 7322 4b3f 37b7 cc3e ecc5 c7be
00000070: 2972 15bf 5df4 593f fe7d 22bd 6982 e43e
00000080: c22e afbe 711e b7bd 4dc7 ed3e 8735 fabe
00000090: bca0 353e 9c0b 9c3e 894e a03e 5140 10bf
000000a0: e9ad a43d 9897 323f 00c4 4f3f 4347 163f
000000b0: 2ddf 7cbf 17a3 77be 268a 423f 85b2 fc3e
0.3465264 0.030162092 -0.061885115 -0.039748676 -1.7725755 0.14688653 0.06741505 0.42816636
-0.48411447 0.9389128 0.64825 -0.21613745 0.05316893 0.8869678 -0.07074847 0.072008654
0.50786114 1.1504489 -0.12591603 1.0866462 -0.20662941 0.26295403 0.0630014 -0.71926165
-0.42758533 0.7934944 0.39983532 -0.3901819 -0.5837732 0.85138494 -0.039670937 0.44630745
-0.3421536 -0.08941353 0.46441117 -0.48868963 0.17737097 0.30477607 0.31309918 -0.5634814
0.08040983 0.69762564 0.8115845 0.58702487 -0.9877804 -0.24183308 0.7599205 0.4935495

running_var f4 [48]
00000000: 19cf 783f 9668 6040 86c0 ad3e 9904 fd3e
00000010: 1e3c d340 0331 f13e 587a 2e3f a085 f83e
00000020: 6ec2 983f a71a 8a40 b6fb 323f 1ec3 dd3e
00000030: 570b 3f3e 5363 c23f cd6c 5f3f 132c ff3f
00000040: de91 ee3f 1f58 8940 934d 783f 1522 6940
00000050: 9704 cd3f e036 d13e a236 793f 18c4 f13f
00000060: 7073 0040 2e64 a63f 1edc 333f 41a0 833f
00000070: 359f 623f 3712 cf3f f11d 163f bd0e 9a3f
00000080: 9a54 223f 1740 bf3f 28dc 9a3f 3b5f 0640
00000090: 63d6 b83f 10d5 633f 4704 9740 8b1e 5140
000000a0: d7ba 5a3f 6e67 3d3f f24d 813f 9b15 553f
000000b0: 7a1a 6840 b9b6 9e3f c863 aa3f 195f 0f3f
0.97191006 3.5063834 0.33935946 0.4941757 6.6010885 0.47107705 0.6815543 0.48539448
1.1934335 4.3157535 0.6991533 0.43312925 0.1865667 1.5186561 0.8727539 1.9935325
1.8638265 4.292007 0.9699337 3.6427052 1.6017026 0.4086218 0.9734899 1.8887968
2.0070457 1.2999322 0.7025775 1.0283281 0.8852418 1.6177434 0.58639437 1.2035748
0.6341034 1.4941434 1.2098436 2.0995624 1.4440426 0.8899698 4.719272 3.2674892
0.85441345 0.73985946 1.0101912 0.8323609 3.626616 1.2399513 1.3311701 0.5600448

weight f4 [12, 48, 3, 3]
00000000: 2d58 6d3d 18f4 fabc b1cf 973d c3db a6bd
00000010: 8e07 f8bd 0521 223c 063d d4bc 84ed c7bd
00000020: c8af 273d d684 913c 91f9 783d 116f a13d
00000030: c02a 66bd 5ac3 17ba 1ad8 503c 3554 4abd
00000040: 0715 09bd 585f 903b 77e9 23bd b892 ed3d
00000050: 18f2 59bd 06c3 7a3c a4b2 9c3d e71e 21bd
00000060: bcbe b4bc 65d4 f6bc b38f f33c 7a5d 003d
00000070: 3907 e23d 9c6d 7cbd af47 bb3d bfd5 1cbd
00000080: 3932 023e f5d5 493d 5f33 d7bd 5563 b03c
00000090: 8feb 07bc c391 b13d 0951 13be 3736 89bc
000000a0: 3cc5 ac3d 5efa 533d d34c f5bd 3432 56bc
000000b0: 46d4 cfbc f660 3cbd 562b cc3b 3e95 debc
000000c0: 682e 973d f1ae a83c 7bf1 8dbd 716c 173c
000000d0: b24f adbb 5051 2e3e 1d57 4f3c 812c 2a3c
000000e0: b1ac 033d c40c 2abc 6bc1 793d b935 d0bc
000000f0: c1eb 753d 5c87 cc3d 1951 2dbc de36 35bd
00000100: a438 7cbd c8e4 ccbd fc70 2abc 939c 4e3d
00000110: f12c 56bc 0e9b 44bd bf24 c23c 0e7d 43bc
00000120: c087 08be 8567 b2bd 6a42 5f3d c7b4 f0bd
00000130: fb34 8ebc f638 453d 5ed5 0a3d e8a9 36bd
00000140: 8287 babd a6d8 f13c fc5b 9abd ecc6 7cbd
00000150: 9834 f43c 30be 883c 18cd 933d 44cf aebd
00000160: 8b3c 323d 1710 b93d 16a1 1cbd 8975 81bd
00000170: a664 c6bd fa58 3bbd fb6f 29bd c5b1 4cbd
00000180: 8b4a 2cbd b930 533d 581e 39bd 0967 683d
00000190: 718c 8c3d 7c33 24bc c592 a03d ab9c 653d
000001a0: f268 c33c 3d16 f63d 5457 47bd e364 62bc
000001b0: 7731 f73c e201 e73d c4d7 b33d d797 ca3c
000001c0: b8e0 273d af3e 1f3e e3d2 c03d 70c7 76bc
000001d0: e1e3 36bd fa90 213d a604 bc3c 0001 443d
000001e0: 3e32 47bd 9ead 1d3d 6072 66bc 918b a83d
000001f0: d6e5 873c acfb 02bc 9f60 c6bc 01c2 0d3e
00000200: a38d 05bd b553 eebd cb08 47bc 0615 c9bd
00000210: 6cbb 8d3d ebca 93bc 3c12 d43d 3f82 debd
00000220: 5549 88bb 90c8 a43d a91d b2bd 876b 003e
00000230: 8111 2abd 9a2e d3bb 59b0 eebb 59e2 74bd
00000240: 3174 a03d 3f72 a13d 8e3b 46be 348f 2ebe
00000250: 0355 fe3c 92dc df3d 4d35 5b3c 96fc eaba
00000260: a496 c13d 6700 3c3d 0020 c23c 7dc5 e53c
00000270: b335 17bd e13b 653d 964e 17bd 11aa f1bd
00000280: 576d dfbd 2f48 16bd d9a7 203e 170b 3ebb
00000290: 2c0e 993d 68e9 55bd ea6b 3dbd 55ac db3d
000002a0: 3f83 de3b b678 173c d339 b0bd 1860 4cbd
000002b0: 76de c03c 689b 30be b5ac 613a 25f8 d6bd
000002c0: f38d 29bd a7a2 05bd 6c38 4d3d f815 7bbc
000002d0: ef3f 833d eb9b 6d3d b8b4 b33c 0630 c8bd
000002e0: 8b60 30bd ab08 2cbe 074b c8bb 1b32 1dbc
000002f0: fab0 013d 2f14 0dbd 76ce ebbd 83ea 1abd
00000300: 839f 59bd f766 323d 794f a03d 502b 29bd
00000310: efdc 923d b323 0c3c 306d ae3d 8761 64bc
00000320: eefc b03d 4afb 1e3c 0764 583d 6f3c 823c
00000330: 5cdf 6cbd c78c 923d b1be 07be 9795 c63d
00000340: d224 24bd 9c3a c8bd fc4f a8bd a642 403d
00000350: 191b ea3d 569c 813d f6c1 b13d 8d6f 9fbd
00000360: e298 043e 94a8 103d c83a 813d 2be7 993d
00000370: b2f3 23bd c3c8 e5bd d007 1abd f289 51be
00000380: cfb9 dd3d 6300 3ebd 2b46 8cbc 2827 4fbb
00000390: 376d 6fbd a82a 44bc e5b8 aabd 5dd8 ecbc
000003a0: e8a4 adbd 3624 b9bd b081 59bd 5dc7 9bbd
000003b0: 470d fa3d 4e4e f1bd 918d 80bd 3a26 0f3e
000003c0: a79f f4bd a453 033d 1171 eb3c 1b5c 2bbd
000003d0: ecdc 39ba 7e12 e5bb 4277 cf3c 9400 123d
000003e0: 2dcf bc3d 0404 b1bd 0d25 0e3d 809f 23bc
000003f0: 178c d2bd 3552 173e 3291 a2bc 3cc3 0fbd
0.05794542 -0.030633971 0.07412661 -0.08147385 -0.12110816 0.009895568 -0.025908004 -0.097620994
0.040939122 0.017763536 0.06078488 0.07882512 -0.056193113 -0.00057893025 0.012746835 -0.049396712
-0.03346732 0.004405897 -0.04001757 0.1160025 -0.053209394 0.015305286 0.076512605 -0.03933611
-0.022063605 -0.030130574 0.029731607 0.031339146 0.11036534 -0.06162797 0.09144532 -0.03828978
0.12714471 0.04927631 -0.10507845 0.02153174 -0.008295908 0.0867038 -0.14386381 -0.016749484
0.08436057 0.05175244 -0.11977544 -0.013073493 -0.025369775 -0.045990907 0.006230752 -0.027170774
0.07381898 0.020591231 -0.06930824 0.009242163 -0.0052890414 0.17023206 0.012655047 0.010386587
0.032147113 -0.01037902 0.060975473 -0.025416242 0.060039286 0.09986755 -0.010578417 -0.04424178
-0.061577454 -0.10004574 -0.010402914 0.05044229 -0.013072238 -0.047999434 0.023699163 -0.011931671
-0.13333035 -0.08711151 0.054506697 -0.117532305 -0.017359247 0.048150025 0.03389489 -0.04459563
-0.09107877 0.029522251 -0.07537076 -0.061713144 0.029810235 0.016692251 0.07216853 -0.085356265
0.04351477 0.09036272 -0.03823956 -0.06321246 -0.09687166 -0.04573915 -0.04136656 -0.04997422
-0.042063277 0.051560137 -0.045194954 0.056738887 0.068627246 -0.01002204 0.07840494 0.056057613
0.023853753 0.1201596 -0.048667267 -0.013817999 0.030174954 0.11279656 0.087813884 0.024730606
0.040985793 0.15551256 0.094152234 -0.015062198 -0.044650916 0.0394449 0.022951435 0.047852516
-0.0486319 0.038495652 -0.014065355 0.08229745 0.016589087 -0.007994574 -0.024215994 0.13843538
-0.03260578 -0.116370596 -0.0121480925 -0.09818463 0.069205135 -0.018041095 0.103550404 -0.10864686
-0.0041591325 0.08046067 -0.086970635 0.12541018 -0.0415206 -0.0064447643 -0.007284206 -0.059786174
0.07834662 0.07883119 -0.19358656 -0.17046815 0.031046396 0.10930742 0.013379407 -0.001792806
0.094525605 0.04589882 0.0236969 0.028048271 -0.036916446 0.055965308 -0.03694018 -0.11800016
-0.10909527 -0.036689933 0.15689029 -0.002899831 0.07473406 -0.052224547 -0.046245493 0.10726229
0.006790548 0.009245088 -0.08604779 -0.04989633 0.023543578 -0.17246783 0.0008608804 -0.104965486
-0.04139514 -0.03262582 0.050102636 -0.015325062 0.06408679 0.058010023 0.02193676 -0.09774785
-0.04306082 -0.16800182 -0.0061124596 -0.009594466 0.03166292 -0.034443077 -0.11513989 -0.037821304
-0.053130638 0.043555226 0.07827658 -0.04130107 0.07171046 0.008553433 0.085169196 -0.013939268
0.086419925 0.009703467 0.05282977 0.015897958 -0.0578302 0.071557574 -0.13256337 0.09696501
-0.040074177 -0.09776804 -0.08218381 0.04693856 0.1143095 0.06328647 0.08679573 -0.077849485
0.12948945 0.03531702 0.0631004 0.07514795 -0.040027328 -0.11219933 -0.037605107 -0.20462778
0.10826456 -0.046387088 -0.017123302 -0.0031609032 -0.058453765 -0.011973061 -0.08336047 -0.028911764
-0.08478719 -0.0904011 -0.053102195 -0.07606385 0.12209564 -0.117825136 -0.06277002 0.13979426
-0.11944514 0.032062188 0.028740438 -0.041835885 -0.000709011 -0.00699073 0.025325421 0.035645083
0.09219203 -0.08643344 0.034703303 -0.009986758 -0.10280626 0.14777453 -0.019844625 -0.0350983

weight f4 [44]
00000000: d403 743f 2e4c 753f 5130 753f 4dd4 843f
00000010: 1fb3 763f 4d1b 7b3f 88c2 803f c7f6 813f
00000020: 9d3f 853f 7909 843f 8d50 753f 7d90 803f
00000030: 4846 823f 815b 7e3f 6e7c 7b3f 0ebe 723f
00000040: 7e73 843f 0789 7b3f 4a96 803f d341 713f
00000050: 0a09 7d3f f9ec 823f b4ca 683f 72e0 763f
00000060: a90b 7c3f 6fca 743f 5790 7f3f c58d 6f3f
00000070: 7549 813f 03e2 703f a812 7f3f 3b92 813f
00000080: d109 763f f703 913f a9f8 883f 009f 7d3f
00000090: b7a1 8b3f 04e1 773f 38c1 8a3f ebb3 743f
000000a0: 559d 6e3f fa13 743f 5f0e 893f 0857 763f
0.9531834 0.95819366 0.9577685 1.0377289 0.9636707 0.9808853 1.0059366 1.0153435
1.0410038 1.0315391 0.95826036 1.0044094 1.0177698 0.99358374 0.9823674 0.9482125
1.0347745 0.9825596 1.0045865 0.94241065 0.9884192 1.0228568 0.909343 0.96436226
0.9845529 0.9562139 0.9982962 0.935757 1.0100542 0.94094867 0.9963784 1.0122751
0.9610873 1.1329335 1.0700885 0.9907074 1.0908726 0.9682772 1.0840216 0.95587033
0.9320882 0.9534298 1.0707511 0.9622655

bias f4 [44]
00000000: 48b9 4c3c b969 bbbc 7de3 8b3c 1ffe 3fbd
00000010: 9429 3bba 099c 54bd de27 81bc 6439 86bc
00000020: 33c8 25ba 71ad 76bd d91a 00bd 17a9 9dbd
00000030: 3ab5 543c 5a51 983b 905c 91bb 8723 e0bc
00000040: 24bc 87bd c704 cbbd a474 893d 2c59 73bc
00000050: 3a83 82bc 8f39 3cbd a006 49bd 4682 57ba
00000060: 0125 b83b 5da0 2dbd fbd8 163d b102 b0bc
00000070: 1770 47bd c8c2 d3bb 43d8 243d eb47 79bd
00000080: 26c4 75bd 8ece 4fbe b9f9 073e a39f 5fbd
00000090: 6e62 07be fa11 b83b 025c 36bd e5e9 4cbd
000000a0: 73e9 90bd 1ea3 dfbc cde2 43be 72ce 13be
0.012495346 -0.02287756 0.017076248 -0.046873208 -0.00071396795 -0.05190662 -0.01576608 -0.016384788
-0.00063240825 -0.060224 -0.031275604 -0.07698267 0.012982661 0.0046483697 -0.004436083 -0.02736069
-0.06627682 -0.099130206 0.067117006 -0.014852803 -0.015931714 -0.04595333 -0.049078584 -0.00082210114
0.0056196456 -0.042389262 0.036828022 -0.021485658 -0.04869088 -0.0064624287 0.040245306 -0.060859602
-0.060001515 -0.20293638 0.13278855 -0.0545956 -0.13221142 0.0056173773 -0.04452134 -0.050027747
-0.07075777 -0.02729946 -0.19129486 -0.14434221

running_mean f4 [44]
00000000: 8a90 1e3e 6735 3f3e 9fa7 a83e 5b7d 783e
00000010: 309d 9c3e 5570 3e3e a6f7 8e3e 4bcf 913e
00000020: 2d98 a83e cd66 a03e 22a5 ae3e 3f10 b93e
00000030: 7ea6 a43e 7851 b63e 7852 a43e 9b6d af3e
00000040: b68c 943e 7d4b 3a3e aac9 b13e cb55 953e
00000050: a9d0 b23e 4ad7 8b3e 2c08 ae3e 1b44 ba3e
00000060: 86e8 ba3e c2be ad3e 6e82 bb3e 8158 a03e
00000070: 8a03 a63e f72f a73e 71a1 b23e 2f92 6f3e
00000080: b64c 17bf 7c3f a4be 7416 afbe 58ac 833e
00000090: 1fa4 51be d9bb 6ebf 52cd 82be 24a5 3bbe
000000a0: 8927 093f dc3f 63bf c9b8 7d3d 30a7 053f
0.15484825 0.18672715 0.32940385 0.2426657 0.30588675 0.18597539 0.27923316 0.28478464
0.329286 0.3132843 0.3411036 0.36145207 0.32158273 0.3560903 0.3209417 0.3426331
0.29013604 0.18192859 0.3472417 0.29167017 0.3492482 0.2731269 0.3399061 0.36380085
0.36505526 0.339346 0.36622947 0.31317523 0.32424575 0.32653782 0.34888795 0.23395608
-0.59101427 -0.32079685 -0.34196818 0.25717425 -0.20472763 -0.9325538 -0.25547272 -0.18324715
0.5357595 -0.88769317 0.061943803 0.5220823

running_var f4 [44]
00000000: 485d 263e b92f 1d3e 5239 2c3f 0dd4 ae3e
00000010: d31b eb3e 0cd1 953e 4374 d73e 24f3 a93e
00000020: 1d5b 153f 221d 003f fc89 253f 9bc2 1d3f
00000030: 4af0 143f b252 053e 9ff5 333e b505 003f
00000040: c125 e33e 212a a33e 029b e43d 5bc4 a73e
00000050: 5b63 253f ae0e e43e b1f1 1d3f 240a f93d
00000060: ec1d d03d 6a67 163f 2ecf 033e 2f2e c73e
00000070: da09 1a3f a9bc 043f eb9f 053e 1462 a13e
00000080: cb3e a540 ba24 1f40 0aa4 6a40 f91b 5240
00000090: 7795 1040 ecee 2940 d413 5540 68d5 3440
000000a0: 2b4c 2d40 6e40 8940 a3ef 4840 a98c 0640
0.16246521 0.15350236 0.67274964 0.34146157 0.45919666 0.29261053 0.42080888 0.33193314
0.5834215 0.50044453 0.6466367 0.6162507 0.5817915 0.13019827 0.17574166 0.5000871
0.4436474 0.3186808 0.11162378 0.32766995 0.6460473 0.4454245 0.61696917 0.12160137
0.10161957 0.5875155 0.12872002 0.38902423 0.6017128 0.5185037 0.13049285 0.3152014
5.163915 2.4866166 3.6662621 3.2829573 2.2591226 2.6552076 3.3293352 2.8255253
2.707774 4.289115 3.1396263 2.1023352

weight f4 [48, 44, 1, 1]
00000000: ef5b 81be 3923 0e3c 3873 5abe e0c6 0a3e
00000010: c5d7 92be 93fa 793c 4669 e43d 4240 00bf
00000020: cc0b f3be 52de d43d 2e51 953d 840b ed3d
00000030: 8298 263d 0509 b7be 1f8c 2e3d f522 a13d
00000040: a848 eb3d 256c b63e 774e 303e ef7d 083e
00000050: 8dd6 2fbe f23a 8bbd c1ea 7a3e f296 15be
00000060: d6c0 5c3e 19dc a33e 226f b03d 1691 3a3e
00000070: b5b0 e8ba b3c6 3b3e 0ef4 2c3f e76a 6abe
00000080: 60fe a1bd 76fe a4be b617 703c 8a83 a2bd
00000090: b0af 913e 9271 473b 6f02 b0be 977d a6be
000000a0: fa53 4dbd e5e1 60bb 66e8 a83d fb53 32be
000000b0: d615 14bd a9d5 90be be72 213e ac75 78be
000000c0: e210 a2bd 9241 22be 8055 f4bd ab22 a43e
000000d0: e4bb 923e 5d45 773e 8ac1 663d eafa 95be
000000e0: b2d1 adbd 8aee 633e aa79 a0bc a8b4 d83d
000000f0: bfa9 d03e 7e7e 9c3e 9aa6 24be 9518 29be
00000100: 6628 103e 6beb 7abe 1ab1 ec3e 6232 62be
00000110: 1825 2cbd 0d3c c83e 0254 a0be 8fdb d9bd
00000120: c9d1 f9bd 825f 1dbd dcaf b03e 6aad 5d3d
00000130: bfc7 d33d 66cc c23e 655d 9b3e 8ca3 91be
00000140: f6d6 f23e 0020 f5be 3f82 2d3e f3ef 873d
00000150: 7e42 fa3e 9397 3b3e fddf 0a3f fcac 203e
00000160: c063 173e b6c2 8cbd 9d0b 6d3e 4177 4abe
00000170: f8a2 30be 3185 9c3e 8ef1 2d3e 60f9 8cbe
00000180: ccdc c2bb a306 5dbd 758c 4d3d 87a5 a9bd
00000190: 1049 47bd b2e2 d93e 1c89 0dbe ac93 4cbd
000001a0: 545c 4c3d 7cde 00bf cffe 613d c765 a33e
000001b0: 453e 87be ee7b 91bd c669 163e 8abc bd3e
000001c0: 0a79 38bd 8de8 58be e34d 0d3e 527f cfbc
000001d0: 0918 9fbe 87ea aebd f2e7 59be 3638 09bf
000001e0: 0adf eebd f1cb 853e 0641 27bd 87ba ccbd
000001f0: 0058 993e af54 29be 4b49 2ebe 4ce3 c03e
00000200: b720 443e 6c11 ed3d 0852 a9bd 6257 a03e
00000210: 420f f5be 377d 803d 1f39 143e 7b14 4fbe
00000220: df57 37bd b02d 94be 6cd7 99be 1f88 de3d
00000230: dfa2 f2bc 945f 0cbd e923 343e d66a 41be
00000240: 5f3a 48bd 6582 3e3e 4f09 23be 2f3c 1dbe
00000250: 33a1 6ebe 2f4f 203e 21fe 20be ee1b 413d
00000260: 90f6 01bf 3167 72bd 27d5 5b3c 5c7c 1c3e
00000270: 77b9 353e 5375 753e a330 8abe 6f6e af3d
00000280: 00b0 703d 10ec ccbe 823c f9be d55d 3e3d
00000290: b1ca 38bd 2499 53be 779e 573e b627 b63c
000002a0: 7704 b53d b517 a93d dd27 c8bd eb9e e5bd
000002b0: 6bb7 003f e939 0abe fb1e 8d3d 55ba 533d
000002c0: 8bc2 84bd 4a01 25bd 84d3 6dbd c154 47be
000002d0: c041 fb3d 0f1a b33e c807 5fbe 4411 d13d
000002e0: 3030 833e 4075 043e 2a74 133e 4793 863e
000002f0: f4ba 013e ce4e 09be 65ca ad3e af7b 47be
00000300: 2116 b13e a722 97be aba1 ff3d acbe d7be
00000310: c7ee 47bd 1897 273e 8b62 cabd 44ff acbd
00000320: 9407 e3bc 0228 143d 0c3d 7f3e 21e1 433c
00000330: 17f1 e03e 3809 b8be 786b 703d 154b 7c3e
00000340: 9f7b 61be f3d5 a43e 7895 013e 202b 653d
00000350: 5d9f 7e3e 72c9 4fbe 0c22 e5bb 3556 653e
00000360: 65cc 1fbd 9831 06bf 355d d13d 026f 203d
00000370: 918d 8c3c deaa cb3e 7b02 623d 2f73 9c3c
00000380: 1cd8 92be 9ed5 edbd 7d2b 023e 018b cbbd
00000390: ff6c 3bbd 40e7 6bbe f63e a3be 256d 793c
000003a0: 2d87 013e 2073 18be ad24 1bbe 386c bb3e
000003b0: 8426 883e 6256 c5bd d255 ebbe 06f3 1c3e
000003c0: 9217 9dbe 1309 083e cef6 8ebe 2def 9bbc
000003d0: b3b2 b0bd 3cca 923d 8a6c acbe 405d b9bd
000003e0: 705c 6a3e cf4d 27be f89f 73be 3d89 243b
000003f0: e3a4 4abe f4eb 253e 0572 1c3e 4047 20be
-0.25265452 0.00867539 -0.21333015 0.13552427 -0.28680244 0.015257495 0.11152892 -0.5009805
-0.47469938 0.10393967 0.072908744 0.11574462 0.040672787 -0.3574907 0.0426141 0.07867996
0.114884675 0.35629383 0.17217432 0.1332929 -0.17171688 -0.06798352 0.24503614 -0.14608362
0.21557936 0.3200386 0.08614947 0.18219408 -0.0017752858 0.18337516 0.675599 -0.22892343
-0.07909846 -0.32225388 0.014654091 -0.07935245 0.2845435 0.0030432683 -0.34376857 -0.32517692
-0.050128914 -0.003431433 0.082474515 -0.17414849 -0.036153637 -0.2828801 0.15766427 -0.24263638
-0.079133764 -0.15845326 -0.1193037 0.320577 0.28658974 0.24147554 0.056336917 -0.29292995
-0.08487262 0.22258964 -0.019589264 0.105813324 0.40754506 0.30565256 -0.16079178 -0.16513284
0.14077911 -0.24503867 0.46228868 -0.22089532 -0.042027563 0.39108315 -0.31314093 -0.106375806
-0.121982165 -0.03842116 0.3450917 0.05412046 0.10340833 0.3804657 0.30344692 -0.2844509
0.47429627 -0.47875977 0.16944216 0.066375636 0.48878855 0.1831954 0.5424803 0.15690988
0.14784145 -0.06873076 0.23148961 -0.19772054 -0.17249668 0.30570367 0.16986677 -0.27534008
-0.005946731 -0.053961407 0.05018278 -0.08283525 -0.048653662 0.42555767 -0.13821834 -0.04994552
0.04989274 -0.50339484 0.055174645 0.31913587 -0.26414695 -0.07103716 0.14688787 0.37057906
-0.045037307 -0.21182461 0.13799243 -0.025329266 -0.31073025 -0.08540826 -0.21279886 -0.53601396
-0.11663635 0.26132157 -0.040833496 -0.09996515 0.2994995 -0.1653621 -0.17020147 0.37673414
0.19153105 0.115755886 -0.08267599 0.31316668 -0.47863203 0.06273883 0.14474915 -0.20222656
-0.044761535 -0.28941107 -0.30047166 0.10865807 -0.029618679 -0.034270838 0.17591824 -0.18888411
-0.048883792 0.18604429 -0.1592152 -0.1535499 -0.2330368 0.15655206 -0.15721942 0.047145776
-0.5076685 -0.059180442 0.013417519 0.15281814 0.1774653 0.23970537 -0.26990232 0.085659854
0.058761597 -0.4002385 -0.48678976 0.046476204 -0.045115177 -0.20663887 0.21056543 0.022235733
0.08838742 0.08256475 -0.09773228 -0.11211952 0.50279874 -0.13498653 0.06890675 0.051691372
-0.064824186 -0.040284432 -0.058063045 -0.19465925 0.122684 0.3498082 -0.21780312 0.10208371
0.25622702 0.12935352 0.14399782 0.2628424 0.12668973 -0.13408968 0.33943477 -0.19480775
0.34587196 -0.29518625 0.124820076 -0.4213766 -0.0488117 0.16366231 -0.09882077 -0.084471256
-0.027713574 0.036170967 0.24925631 0.01195553 0.43933937 -0.35944533 0.05869624 0.24638017
-0.22019814 0.3219448 0.12654674 0.05594933 0.2486548 -0.20291689 -0.006992584 0.22396167
-0.039013285 -0.52419424 0.10222856 0.039168365 0.017157348 0.397788 0.055178147 0.019097893
-0.28680503 -0.1161301 0.12711902 -0.09938622 -0.045758244 -0.23037434 -0.31883973 0.015223776
0.12649222 -0.14887667 -0.1515071 0.36606002 0.26591885 -0.09635617 -0.45963913 0.15327081
-0.30682045 0.13284712 -0.27922672 -0.019034946 -0.08627834 0.071674794 -0.3367656 -0.09050989
0.22886825 -0.16338275 -0.23791492 0.0025106214 -0.19789462 0.1620329 0.1527787 -0.1565218

weight f4 [48]
00000000: e41f 773f 005e 873f 2aee 7e3f 46f0 7e3f
00000010: f6e1 843f 9a7d 5b3f 8761 813f a35e 853f
00000020: 406a 823f 499b 7b3f 6fdf 7c3f fb68 693f
00000030: 2f8a 7c3f cf5e 823f c4de 823f 8f92 7d3f
00000040: 0fec 833f c7f6 803f 4621 723f 378e 843f
00000050: 18a7 7d3f 538d 803f d718 843f eb2d 803f
00000060: 07d9 803f 3600 7f3f 2681 853f 7e71 7d3f
00000070: ccfc 733f f144 803f aa40 713f cdbe 763f
00000080: 405c 7b3f c27b 7d3f dd72 6b3f 87ee 773f
00000090: 58e7 7c3f 4bf2 7a3f 1989 7a3f 6abd 773f
000000a0: c111 8a3f bea6 7c3f ddbf 853f f07c 863f
000000b0: 2297 7e3f 7db4 7b3f 5e2e 873f 60e9 703f
0.96533036 1.0575562 0.9958216 0.9958538 1.0381458 0.8573853 1.0107888 1.0419506
1.0188675 0.9828382 0.9877843 0.9117581 0.9864835 1.0185183 1.0224233 0.99051756
1.0306414 1.007531 0.9458202 1.03559 0.9908309 1.0043129 1.032008 1.0014013
1.0066231 0.99609697 1.0430038 0.990013 0.9530761 1.0021039 0.94239295 0.9638489
0.9818764 0.99016964 0.9197214 0.9684834 0.987905 0.9802596 0.97865444 0.967734
1.0786668 0.9869193 1.0449177 1.0506878 0.9944936 0.9832228 1.0561025 0.941061

bias f4 [48]
00000000: c4fc d5bc edbe b2bd 9f19 093d 9340 9c3a
00000010: 8061 edbd daa8 62bd 8181 e7bd 83dc 9c3d
00000020: 9721 7f3d 6d67 613d 0308 efbc ce16 acbd
00000030: f719 94bc fa48 abbc 2a2f 353d 369d a5bd
00000040: 7305 5e3d 2e16 eb3c 7993 abbd 80f3 db3b
00000050: 9740 b63b 5958 a63c 2e8e 7abd 67ed 79ba
00000060: 1d9e bfbd bfb1 bdba f57a 803d e77d 8c3c
00000070: 0b3f ddbc 0cca b6bc 9d97 93bd 8ce5 31bc
00000080: 516c 17bc 80cf babd e6b4 acbd 7a7e 23bd
00000090: ce6c d3bd 0cce b6bd b1c1 56bc d7d9 bbbc
000000a0: 6821 f1bd f2ee 0dbe b564 eebd 370a abbc
000000b0: 3703 7dbc 1119 773b 4fb6 c63d 469f adbd
-0.026121505 -0.087278225 0.0334717 0.00119211 -0.11590862 -0.05533681 -0.11303998 0.07659247
0.062287893 0.055030275 -0.029178625 -0.08402787 -0.018078787 -0.020908821 0.044234432 -0.08086626
0.054204416 0.0286971 -0.083777376 0.006712377 0.005561899 0.0203058 -0.06117075 -0.0009533972
-0.093563296 -0.0014472528 0.06273452 0.017149879 -0.0270076 -0.02231314 -0.07206652 -0.010857951
-0.009242133 -0.09121609 -0.08432941 -0.03991554 -0.10323487 -0.08926019 -0.013107703 -0.022931023
-0.1177395 -0.13860682 -0.11640302 -0.020878894 -0.015442661 0.003770415 0.09702741 -0.084776446

running_mean f4 [48]
00000000: bbb1 b73d 7054 0f3f a465 fdbc 53a1 31bf
00000010: e6e5 bc3e db09 3ebf 40b3 ae3f e423 25bf
00000020: 2ff7 b3bd 30c2 60bf 8b60 983e 9b83 213d
00000030: 2563 13be 2d43 cbbd 1c59 8fbf 56b6 183e
00000040: 98d2 73bf 2c71 f1be e8e0 c43f ccbc 1e3f
00000050: 2fbf cabe ff5e 33bf c447 813d 9d4d 8c3d
00000060: 0e2a ddbd 1e44 aabe dc05 d2be 03cc 74bf
00000070: 0ea1 1e3f 243c d9bd 5dbc 293f 139a 79be
00000080: 1b01 1a3f db2a 2a3f 2507 3a3f 1dd1 df3e
00000090: 3e0c 033f 0a32 2d3f 6c81 6cbf 7a38 0ebf
000000a0: 6177 993f f610 963e f37b 0f3f b79f 013f
000000b0: 140e 373e 18ba fb3e 885c 1dbe d905 613f
0.08969446 0.55988216 -0.030932255 -0.69386786 0.3689415 -0.7423379 1.3648453 -0.6450789
-0.08787381 -0.87796307 0.29761156 0.03943215 -0.1439329 -0.09924922 -1.1199069 0.14913306
-0.95243216 -0.47156656 1.5381136 0.6200683 -0.39598987 -0.7006683 0.06312516 0.06850741
-0.10799037 -0.33255094 -0.41020095 -0.956238 0.619645 -0.10607174 0.66303045 -0.24375181
0.60157937 0.6647164 0.7266715 0.43714228 0.51190555 0.6765448 -0.9238498 -0.55554926
1.1989557 0.29309815 0.56048506 0.5063433 0.17876464 0.49165416 -0.15367329 0.8789955

running_var f4 [48]
00000000: 4441 903f 1477 2440 0323 f53f a926 e13f
00000010: 44f8 df3f a041 833f 5c0c 8040 0867 a93f
00000020: 9444 a23f 9ff7 fd3f 5578 743f 68af c23f
00000030: 7586 7240 d126 443f 761f 7f40 2a61 cd3e
00000040: c7b2 5140 ddba e33f d6d7 ff40 73b6 a23f
00000050: 8244 0640 7eac ca3f 6037 333f ff11 d13f
00000060: 3dc5 823f ee91 1f3f f413 863f eedf 1040
00000070: 5710 4c40 6baf f63f 526a 1a40 1eb0 683f
00000080: 4d08 f83f df98 f63f 4d35 1d40 bc62 ff3f
00000090: 9cce 0840 46f9 b03f 4fc1 693f 79f8 cf3e
000000a0: 8d4b 3340 d133 873f 7f32 a33f 555e 8c3f
000000b0: cc42 d03f ba20 0b3f 488c 883f ce99 6f40
1.1269917 2.569768 1.915131 1.7589923 1.749764 1.0254402 4.0015087 1.3234568
1.2677178 1.9841193 0.9549611 1.520978 3.7894566 0.7662173 3.9862952 0.40113193
3.2765367 1.7791401 7.995097 1.2711929 2.0979314 1.583389 0.7000637 1.6333617
1.0216442 0.62332046 1.0474839 2.2636676 3.1884973 1.9272283 2.4127393 0.90893734
1.9377533 1.9265403 2.4563782 1.9952006 2.1376104 1.3826072 0.9131059 0.40619257
2.8014863 1.0562688 1.2749785 1.0966288 1.6270385 0.5434681 1.066781 3.7437625
